2021-fall/homeworks_small/shw7/net_weights.pth (torch_old, 24418 bytes, 4 tensors)

features.0.weight f4 [4, 1, 5, 5]
0.4288655 0.16336626 -0.023835728 0.071675114 0.31908396 0.3289229 0.29905304 0.0011071059
0.38421312 0.29411942 0.10463626 0.3802937 0.19535822 0.19617313 -0.018310424 -0.042797312
-0.108137116 0.30694214 0.3817595 0.3244321 0.17156051 -0.068419166 0.06563105 0.1862938
0.24938445 0.3292697 0.1822178 0.29437077 0.32236844 0.52364033 0.15611652 0.07166313
0.1500715 0.4546855 0.34038156 -0.400782 -0.07339324 -0.26614794 -0.026267545 0.07148978
-0.31854814 -0.3176765 -0.16104136 -0.46956223 -0.30251476 -0.49380404 -0.4131339 -0.6769696
-0.49021262 -0.51586485 0.19820207 0.056955244 0.27659225 0.29159716 0.32369554 0.14407915
0.3690019 0.15182656 0.31742284 0.25394478 0.38947624 0.37677243 0.30201527 0.2700146
-0.0060600685 -0.34503502 -0.23641141 -0.23730099 -0.4878826 -0.38380045 -0.6713745 -0.6640143
-0.7495921 -0.46060905 -0.43789202 0.31001952 0.40763155 0.43915975 -0.10736526 -0.5530696
0.37110615 0.54124665 0.20318578 -0.33662984 -0.7217222 0.47026628 0.35180444 -0.0025293059
-0.50189877 -0.7194329 0.27311647 0.3219049 -0.30392784 -0.3765104 -0.51943827 0.20949414
0.16578242 -0.26860496 -0.53407377 -0.35986724
00000000: 4294 db3e 7c49 273e 2543 c3bc 67ca 923d
00000010: f95e a33e 9568 a83e 7b1d 993e 4f1c 913a
00000020: 95b7 c43e d296 963e 894b d63d dbb5 c23e
00000030: fc0b 483e 9ce1 483e beff 95bc 3c4c 2fbd
00000040: fe76 ddbd 8527 9d3e fb75 c33e f71b a63e
00000050: 8fad 2f3e 591f 8cbd 9269 863d cdc3 3e3e
00000060: a35e 7f3e 0a96 a83e 4e97 3a3e c4b7 963e
00000070: 7a0d a53e 4b0d 063f 02dd 1f3e 1ec4 923d
00000080: 58ac 193e 8acc e83e 7e46 ae3e 4c33 cdbe
00000090: 324f 96bd 8b44 88be 092f d7bc 3c69 923d
000000a0: be18 a3be 7fa6 a2be 07e8 24be 766a f0be
000000b0: 37e3 9abe e2d3 fcbe 4986 d3be e14d 2dbf
000000c0: 26fd fabe b80f 04bf 7cf5 4a3e e749 693d
000000d0: 809d 8d3e 394c 953e 6cbb a53e 7c89 133e
000000e0: d1ed bc3e 6c78 1b3e 3f85 a23e 0d05 823e
000000f0: 6e69 c73e 51e8 c03e bfa1 9a3e 5b3f 8a3e
00000100: 8a93 c6bb 6ea8 b0be d515 72be 08ff 72be
00000110: c0cb f9be 7e81 c4be 33df 2bbf d7fc 29bf
00000120: 45e5 3fbf f3d4 ebbe 6233 e0be e1ba 9e3e
00000130: 15b5 d03e 8cd9 e03e 51e2 dbbd f895 0dbf
00000140: a001 be3e 248f 0a3f ef0f 503e bf5a acbe
00000150: c9c2 38bf bec6 f03e b61f b43e b6c2 25bb
00000160: 707c 00bf c12c 38bf ecd5 8b3e b8d0 a43e
00000170: 6e9c 9bbe f9c5 c0be e8f9 04bf a285 563e
00000180: dec2 293e 9786 89be 0fb9 08bf 8540 b8be

features.0.bias f4 [4]
-0.0010389872 0.25862047 0.19271873 0.13930126
00000000: a02e 88ba e769 843e 0f58 453e fda4 0e3e

classifier.weight f4 [10, 576]
-0.043586217 -0.029565591 -0.029356968 -0.030709896 -0.017736169 0.016569322 -0.042017166 0.0024796932
-0.04403485 -0.04571667 -0.025670683 -0.069089875 -0.04760882 0.023911973 -0.048394475 -0.024002956
-0.023485037 0.010238529 0.029885104 0.0066917464 0.007978075 0.01244215 -0.031016774 -0.011593508
-0.05809014 -0.013802661 -0.06904828 -0.004475057 -0.04557474 0.0022586 0.042546224 0.121188045
0.07502516 0.08380005 0.073022865 0.06761942 -0.08165411 -0.014829801 -0.044090316 -0.04291108
0.02844439 0.052901864 0.08124958 0.06928831 0.0643496 0.10859277 0.053918872 0.06958701
-0.0830461 0.036895975 0.033022508 0.03673515 0.036983717 0.02757679 -0.001725979 -0.0002622921
0.058141917 0.0767111 0.05670262 0.07244198 -0.021690093 0.07180505 0.022966297 0.1032092
0.02423821 -0.07836398 -0.17653501 -0.09001036 -0.00932529 0.046676483 0.13332814 0.14701307
0.025589418 0.06998359 0.11021149 0.08746735 0.027181359 -0.12507431 -0.19003083 -0.20346534
-0.10086614 0.035162 0.045976322 0.15256916 0.043282337 0.01356292 0.113442846 0.078119524
0.028792856 -0.12879553 -0.18629925 -0.16543536 -0.022057205 0.022096753 0.096240565 0.1364243
0.020912733 0.00389741 0.07384849 0.05153352 0.088329956 -0.017674476 -0.078422934 -0.1045511
-0.07128171 -0.0127802575 0.040567327 0.08981128 0.018514045 0.010436935 0.025237914 0.055468876
0.072068475 0.06810305 -0.008709581 -0.018844789 -0.008633901 -0.04547851 -0.029983476 0.012288521
-0.009506914 -0.029057685 0.018591877 0.04917886 0.09492534 0.105514534 0.053805314 -0.062269446
-0.05861348 -0.03987739 -0.00031987583 -0.030342426 -0.026432259 -0.010739699 -0.05010105 0.008685618
0.02561446 0.013330214 0.028557384 -0.03714729 -0.09735878 -0.08944071 -0.13644078 -0.084158994
0.07294412 0.02131105 0.01924577 0.050417315 0.02518307 0.07099903 0.07800829 0.06507286
0.022611875 -0.006432747 0.06272412 0.0413204 0.03357693 0.011387248 0.06936565 -0.013775498
-0.02998868 -0.013221903 0.022058545 0.012129278 -0.08323853 -0.06752909 -0.03656042 0.052315127
0.06393567 0.0013928628 -0.047682956 -0.1251167 -0.10619173 -0.02572058 0.026078766 -0.017074669
-0.13383906 -0.11118713 -0.08644639 -0.07469819 -0.0070989965 -0.021286335 -0.057730466 -0.04602272
-0.06782632 0.0016417641 0.014252055 0.028581047 -0.026852217 -0.073072486 -0.1474013 -0.011897397
0.0045525534 -0.04157835 -0.08203638 -0.11938474 -0.102568954 -0.051262543 0.04754097 0.08308467
0.0016532894 -0.12295411 -0.16198596 -0.039984047 -0.00517095 -0.072101705 -0.22228944 -0.1869722
-0.15640654 -0.061859973 -0.028271157 -0.018648112 -0.039825395 -0.059831873 -0.11312348 -0.075930566
-0.023882357 -0.05473792 -0.21667382 -0.1754285 -0.11894671 -0.07900133 -0.18398897 -0.15711574
-0.13358718 0.005293657 -0.023510452 0.010515792 0.06710177 -0.013733401 -0.061806496 -0.17119907
-0.15493798 -0.18553384 -0.23348679 -0.14070463 -0.0028148904 0.031204263 0.04287047 0.10485102
0.030213647 -0.019510267 -0.0460375 -0.060403265 -0.12809472 -0.109075226 -0.002779895 0.038821287
0.0064926343 0.018081129 0.047803406 0.07451085 0.005089815 -0.036698654 0.020636793 0.047524534
00000000: 7687 32bd 8a33 f2bc 067e f0bc 5293 fbbc
00000010: 714b 91bc 63bc 873c 311a 2cbd 5982 223b
00000020: e35d 34bd 6741 3bbd 534b d2bc fe7e 8dbd
00000030: 7701 43bd 0be3 c33c 4939 46bd d9a1 c4bc
00000040: b163 c0bc 81bf 273c 9bd1 f43c 7046 db3b
00000050: 79b6 023c 29da 4b3c e416 febc b2f2 3dbc
00000060: edef 6dbd 8e24 62bc 2f69 8dbd 80a3 92bb
00000070: 94ac 3abd 0505 143b f344 2e3d 7031 f83d
00000080: cba6 993d 5c9f ab3d 038d 953d 0d7c 8a3d
00000090: 453a a7bd b2f8 72bc 0c98 34bd 87c3 2fbd
000000a0: 3604 e93c a0af 583d 2e66 a63d 08e7 8d3d
000000b0: b9c9 833d e365 de3d 09da 5c3d a283 8e3d
000000c0: 1314 aabd 3c20 173d 9c42 073d 9977 163d
000000d0: 3d7c 173d b8e8 e13c 3f3a e2ba 4084 89b9
000000e0: 3826 6e3d b61a 9d3d 0241 683d 765c 943d
000000f0: 6caf b1bc 870e 933d d123 bc3c 585f d33d
00000100: 368f c63c 4b7d a0bd 98c5 34be 5a57 b8bd
00000110: 1ac9 18bc d72f 3f3d 2c87 083e 988a 163e
00000120: e6a0 d13c 8e53 8f3d 90b6 e13d 1522 b33d
00000130: 71ab de3c 7b13 00be 7197 42be 3859 50be
00000140: e892 cebd 0806 103d ab51 3c3d 173b 1c3e
00000150: d248 313d 0237 5e3c b954 e83d 21fd 9f3d
00000160: ffde eb3c fae2 03be 3bc5 3ebe e367 29be
00000170: 50b1 b4bc 4004 b53c c619 c53d d0b2 0b3e
00000180: 2e51 ab3c b06b 7f3b e13d 973d d014 533d
00000190: 56e6 b43d 10ca 90bc 349c a0bd e31e d6bd
000001a0: 25fc 91bd 4964 51bc ed29 263d faee b73d
000001b0: c4aa 973c aeff 2a3c bebf ce3c 5533 633d
000001c0: a398 933d 9d79 8b3d a1b2 0ebc 6360 9abc
000001d0: 3575 0dbc ad47 3abd e89f f5bc cb55 493c
000001e0: e3c2 1bbc 620a eebc fe4d 983c c66f 493d
000001f0: 3768 c23d 0118 d83d f662 5c3d 3f0e 7fbd
00000200: b014 70bd 7956 23bd 02b5 a7b9 ae90 f8bc
00000210: 7788 d8bc 90f5 2fbc c236 4dbd 1f4e 0e3c
00000220: 6bd5 d13c f866 5a3c 2df1 e93c c227 18bd
00000230: 0a64 c7bd b12c b7bd 22b7 0bbe 8d5b acbd
00000240: ba63 953d 8394 ae3c 4ea9 9d3c 6382 4e3d
00000250: ba4c ce3c f067 913d cfc2 9f3d eb44 853d
00000260: 8a3c b93c cbc9 d2bb 8175 803d 943f 293d
00000270: f787 093d 9491 3a3c 940f 8e3d a0b2 61bc
00000280: d2aa f5bc aea0 58bc 1fb4 b43c e1b9 463c
00000290: f678 aabd b14c 8abd 61c0 15bd 6348 563d
000002a0: b4f0 823d b890 b63a 344f 43bd 981e 00be
000002b0: 0d7b d9bd f7b3 d2bc 23a3 d53c 2de0 8bbc
000002c0: 1b0d 09be 14b6 e3bd ce0a b1bd 5dfb 98bd
000002d0: b39e e8bb ae60 aebc c876 6cbd 5282 3cbd
000002e0: 87e8 8abd 7630 d73a 7481 693c cd22 ea3c
000002f0: 2ef9 dbbc 07a7 95bd 5ef0 16be 4ded 42bc
00000300: 962d 953b 0f4e 2abd b102 a8bd fd7f f4bd
00000310: ac0f d2bd acf8 51bd 52ba 423d 4c28 aa3d
00000320: 30b3 d83a 5dcf fbbd a6df 25be 50c6 23bd
00000330: 1371 a9bb 0faa 93bd d89f 63be a475 3fbe
00000340: 0929 20be e260 7dbd ea98 e7bc edc3 98bc
00000350: f41f 23bd 4412 75bd 48ad e7bd 7c81 9bbd
00000360: efa4 c3bc df34 60bd bedf 5dbe 87a3 33be
00000370: 559a f3bd 73cb a1bd 9b67 3cbe f3e2 20be
00000380: 14cb 08be 6a76 ad3b fe98 c0bc 6e4a 2c3c
00000390: a76c 893d 0f02 61bc cf28 7dbd cf4e 2fbe
000003a0: 10a8 1ebe 95fc 3dbe 2917 6fbe e014 10be
000003b0: 067a 38bb 15a0 ff3c f298 2f3d 22bc d63d
000003c0: 9c82 f73c ffd3 9fbc d191 3cbd 6a69 77bd
000003d0: 432b 03be d562 dfbd e62e 36bb 1203 1f3d
000003e0: 2ac0 d43b e01e 943c 81cd 433d 2599 983d
000003f0: 76c8 a63b 5451 16bd 7e0e a93c 16a9 423d

classifier.bias f4 [10]
-0.00050445227 0.009468762 -0.013904611 -0.052525945 0.02979231 0.01969699 -0.026563857 0.038836624
-3.8654372e-05 0.011297704
00000000: 383d 04ba de22 1b3c 2ad0 63bc 7225 57bd
00000010: 010f f43c 955b a13c 729c d9bc 2713 1f3d
00000020: d120 22b8 011a 393c
